…
  {
   "cell_type": "code",
   "execution_count": 38,
   "metadata": {
    "deletable": false,
    "nbgrader": {
     "cell_type": "code",
     "checksum": "73b1436c245005735f4ccb68efcc96e7",
     "grade": false,
     "grade_id": "initialize_network_soln",
     "locked": false,
     "schema_version": 3,
     "solution": true,
     "task": false
    }
   },
   "outputs": [
    {
     "name": "stdout",
     "output_type": "stream",
     "text": [
      "-----------------------------------------FeatrureExtractor---------------------------------------\n",
      "FeatureExtractor(\n",
      "  (conv1): Conv2d(3, 32, kernel_size=(3, 3), stride=(1, 1), padding=(1, 1))\n",
      "  (conv12): Conv2d(32, 32, kernel_size=(3, 3), stride=(1, 1), padding=(1, 1))\n",
      "  (bn1): BatchNorm2d(32, eps=1e-05, momentum=0.1, affine=True, track_running_stats=True)\n",
      "  (relu): ReLU()\n",
      "  (maxpool): MaxPool2d(kernel_size=2, stride=2, padding=0, dilation=1, ceil_mode=False)\n",
      "  (conv2): Conv2d(32, 64, kernel_size=(3, 3), stride=(1, 1), padding=(1, 1))\n",
      "  (conv22): Conv2d(64, 64, kernel_size=(3, 3), stride=(1, 1), padding=(1, 1))\n",
      "  (bn2): BatchNorm2d(64, eps=1e-05, momentum=0.1, affine=True, track_running_stats=True)\n",
      "  (conv3): Conv2d(64, 128, kernel_size=(3, 3), stride=(1, 1), padding=(1, 1))\n",
      "  (conv32): Conv2d(128, 128, kernel_size=(3, 3), stride=(1, 1), padding=(1, 1))\n",
      "  (bn3): BatchNorm1d(128, eps=1e-05, momentum=0.1, affine=True, track_running_stats=True)\n",
      "  (avgpool): AdaptiveAvgPool2d(output_size=1)\n",
      "  (fc): Linear(in_features=128, out_features=128, bias=True)\n",
      ")\n",
      "\n",
      "------------------------------------------LabelClassifier------------------------------------------\n",
      "LabelClassifier(\n",
      "  (fc1): Linear(in_features=128, out_features=64, bias=True)\n",
      "  (bn): BatchNorm1d(64, eps=1e-05, momentum=0.1, affine=True, track_running_stats=True)\n",
      "  (fc2): Linear(in_features=64, out_features=10, bias=True)\n",
      "  (softmax): Softmax(dim=None)\n",
      ")\n",
      "\n",
      "------------------------------------------CrossEntropyLoss------------------------------------------\n",
      "CrossEntropyLoss()\n",
      "\n",
      "------------------------------------------DomainClassifier------------------------------------------\n",
      "DomainClassifier(\n",
      "  (fc1): Linear(in_features=128, out_features=64, bias=True)\n",
      "  (bn): BatchNorm1d(64, eps=1e-05, momentum=0.1, affine=True, track_running_stats=True)\n",
      "  (fc2): Linear(in_features=64, out_features=64, bias=True)\n",
      "  (fc3): Linear(in_features=64, out_features=1, bias=True)\n",
      ")\n"
     ]
    }
   ],
   "source": [
    "BATCH_SIZE = 64\n",
    "LR = 1e-2 # learning rate\n",
    "LR_decay_rate = 0.999 # learning schedule decay_rate\n",
    "TOTAL_EPOCHS = 5 \n",
    "LOG_PRINT_STEP = 200 # print training progress every LOG_PRINT_STEP iterations\n",
    "\n",
    "# Intialize the following objects for the networks modules\n",
…
